flappybird1.pt (torch, 32880 bytes, 4 tensors)

fc1.weight f4 [512, 12]
0	0xbe123778	-0.14278972
1	0x3e28e438	0.16493309
2	0x3d1a139e	0.037616365
3	0xbe3a08fc	-0.1816749
4	0x3e4cf65b	0.20015852
5	0xbd777e89	-0.060423408
6	0x3e8efb02	0.2792588
7	0xbca47b39	-0.020078288
8	0x3e225d75	0.15855964
9	0xbec48cba	-0.38388616
10	0xbd0181ac	-0.031617805
11	0xbe15e6a7	-0.14638768
12	0x3ea3032b	0.31838354
13	0x3e09ee25	0.13469751
14	0xbe0c343a	-0.13691798
15	0xbc63d3a0	-0.013905436
16	0x3d8cc50d	0.06873522
17	0x3de5ff15	0.11230294
18	0x3e761954	0.240331
19	0x3e67d2a6	0.2263895
20	0xbd0859a5	-0.033288617
21	0x3d423e83	0.047422897
22	0x3e0c5b48	0.13706696
23	0xbd9ca644	-0.076489
24	0xbe47a7f5	-0.19497664
25	0x3e6af56c	0.22945184
26	0x3e7e2974	0.248205
27	0x3e951562	0.29117876
28	0xbde4b775	-0.11167804
29	0xbd7ceb90	-0.061748087
30	0x3e950a8b	0.29109606
31	0xbe4dadb3	-0.20085792
32	0xbe644688	-0.2229253
33	0xbe8c32b2	-0.27382427
34	0x3dce7b97	0.10082167
35	0xbd162329	-0.036654625
36	0x3e86f5aa	0.26359302
37	0xbd4162ed	-0.047213484
38	0xbd48c423	-0.049015176
39	0x3e079ce4	0.13243443
40	0xbe993265	-0.2992126
41	0x3dcc266e	0.099682674
42	0x3d5899c6	0.052881025
43	0x3d5f963b	0.05458663
44	0x3e48a9da	0.19596043
45	0x3e6646bf	0.22487925
46	0x3e4598cc	0.19296569
47	0xbe16fe00	-0.14745331
48	0xbd890e7d	-0.066922165
49	0x3d334376	0.043765508
50	0xbe23acf2	-0.15983942
51	0x3ce1716c	0.027519904
52	0x3eb0e7dd	0.34551898
53	0xbdf974fc	-0.12180516
54	0xbe1774b8	-0.14790618
55	0x3e10a6e9	0.14126171
56	0x3e2c8242	0.16846564
57	0xbe72ef00	-0.23723984
58	0xbdb2795e	-0.08714555
59	0x3db92adb	0.09041377
60	0x3efb41eb	0.4907373
61	0xbe8d1e96	-0.27562398
62	0x3d7d0c8a	0.061779536
63	0x3d9e2909	0.077226706
64	0xbe005512	-0.12532452
65	0x3b0cb961	0.00214728
66	0xbdda96b1	-0.10673273
67	0x3d603a25	0.05474295
68	0x3cdf9c36	0.027296167
69	0x3e1cbd68	0.15306628
70	0xbc8af246	-0.016961228
71	0xbc7df235	-0.015499641
72	0x3d8dfc61	0.06932903
73	0xbe7c7ccf	-0.24656986
74	0xbd44ca33	-0.048044395
75	0x3e95d18f	0.29261443
76	0xbe578bca	-0.21049419
77	0x3e1198fb	0.14218514
78	0x3e80f0e1	0.25183776
79	0xbdbea445	-0.09308676
80	0x3e2b6764	0.16738659
81	0xbc1b95f7	-0.009496204
82	0xbdd19eca	-0.10235365
83	0xbe1457f4	-0.14486676
84	0x3ea3761b	0.31926045
85	0xbd397b79	-0.04528377
86	0xbe0c4f15	-0.13702042
87	0xbe86b32d	-0.26308575
88	0x3c97b50e	0.01851895
89	0x3e7e1f4f	0.24816631
90	0x3e9b9a12	0.30390984
91	0x3e430c23	0.19047599
92	0x3dac357f	0.08408641
93	0x3ec821f2	0.39088398
94	0xbd2d9a8a	-0.042383708
95	0xbe70917c	-0.23492998
96	0x3ec00461	0.3750334
97	0xbdfb9426	-0.122841164
98	0xbdacaffa	-0.08432002
99	0xbe4d5c8b	-0.20054834
100	0x3db64e87	0.08901697
101	0xbd7b8920	-0.06141007
102	0xbe7da897	-0.24771343
103	0x3cd4c15b	0.025971105
104	0x3e77b03b	0.2418832
105	0x3e16f1dd	0.14740701
106	0x3def2a77	0.116780214
107	0xbd9dd831	-0.07707251
108	0x3de9a852	0.11409058
109	0xbe0fb367	-0.1403328
110	0xbe0b0de4	-0.13579518
111	0x3ea56d2d	0.32309857
112	0xbe2f3f74	-0.17114049
113	0x3e16905e	0.14703509
114	0x3e69db8a	0.22837654
115	0xbeb22856	-0.347964
116	0x3c0f0643	0.00872952
117	0xbe12c1bd	-0.14331718
118	0xbe04676a	-0.12930074
119	0x3e2ef6ab	0.17086284
120	0xbcb34356	-0.021882694
121	0x3e057701	0.13033678
122	0xbcd2a278	-0.025712237
123	0x3ce53172	0.027977679
124	0x3e6d5579	0.23177136
125	0x3e705001	0.23468019
126	0x3e062cd2	0.13103035
127	0x3e2fd1c3	0.17169861
128	0xbd59df05	-0.053191204
129	0x3d03bda4	0.032163277
130	0xbc333d16	-0.010939857
131	0xbd30e334	-0.043185428
132	0x3e318aca	0.173381
133	0x3d274b1f	0.040843125
134	0xbd880e7a	-0.06643386
135	0xbe367c68	-0.17820895
136	0xbd5b67a1	-0.053565625
137	0xbe431e71	-0.19054581
138	0xbe7d5cf9	-0.24742498
139	0xbd5fb5dd	-0.054616798
140	0xbe925655	-0.2858149
141	0xbcc2c691	-0.023776324
142	0xbe08c1ba	-0.13355151
143	0xbca5e7e8	-0.020252183
144	0x3ee52e25	0.44761768
145	0xba9a6144	-0.0011778255
146	0xbe7068be	-0.23477456
147	0x3df2a7a4	0.11848381
148	0xbe2ce824	-0.1688543
149	0xbe00e792	-0.12588337
150	0xbe84515e	-0.25843328
151	0xbe8074e8	-0.25089192
152	0x3d9f2f4a	0.077726915
153	0x3e2186f2	0.15774134
154	0x3e1cb520	0.15303469
155	0x3ec41172	0.3829456
156	0xbe8a0cac	-0.26962793
157	0x3e3cc817	0.18435703
158	0xbdf85412	-0.1212541
159	0xbe4ed822	-0.20199636
160	0x3e1534db	0.14570944
161	0x3e7e0839	0.24807824
162	0xbe843d96	-0.25828236
163	0x3e47f350	0.1952641
164	0xbd9b9ffc	-0.07598874
165	0x3e20cf1f	0.1570401
166	0x3b3b1f0e	0.0028552446
167	0xbddd830f	-0.10816013
168	0xbd0b8c8f	-0.034069594
169	0xbc240eb5	-0.010013272
170	0xbdfd942e	-0.12381779
171	0xbe8def1f	-0.27721497
172	0xbe91476a	-0.28374797
173	0xbe785199	-0.24249877
174	0x3d3646d4	0.04450114
175	0xbd22ee97	-0.03977832
176	0xbe19f411	-0.1503451
177	0xbd0e4e40	-0.034742594
178	0xbe704f13	-0.23467664
179	0xbdb90fde	-0.090362296
180	0x3e421a17	0.18955265
181	0xbdf1315b	-0.11776992
182	0x3be711bb	0.007051674
183	0x3daeb2a0	0.08530164
184	0x3e69ae74	0.22820455
185	0xbe1ad907	-0.15121852
186	0xbdc6a74e	-0.096998796
187	0x3e8ef832	0.27923733
188	0x3e3c3241	0.18378545
189	0x3d7eb07f	0.06218004
190	0x3e021185	0.12701996
191	0x3d9717ec	0.073776096
192	0xbcebaba5	-0.02876837
193	0xbd22f4dc	-0.039784297
194	0xbb6cf213	-0.003615503
195	0x3e78f62c	0.24312657
196	0x3db8bbfd	0.09020231
197	0xbe23e69e	-0.16005942
198	0x3e84437e	0.25832742
199	0x3dc97a0c	0.09837732
200	0x3b9e78ff	0.004836201
201	0xbd085935	-0.0332882
202	0x3e213624	0.1574331
203	0x3e200ace	0.15629122
204	0x3e9da338	0.3078859
205	0xbcdf0b8e	-0.02722719
206	0x3df8cf83	0.12148955
207	0x3e8d5163	0.27601156
208	0xbe6b0ae4	-0.22953373
209	0x3d97213f	0.07379388
210	0x3ddcb094	0.10775867
211	0x3ed8a06e	0.42309898
212	0x3c88a435	0.016679863
213	0x3eaf3166	0.34217376
214	0x3e032fc4	0.1281119
215	0xbe320d1e	-0.17387816
216	0xbdb4cce3	-0.088281415
217	0xbdec18c6	-0.11528163
218	0x3d8d4ab9	0.06899018
219	0xbe1e18e0	-0.15439177
220	0x3e518fce	0.20465013
221	0xbd9d46f1	-0.076795466
222	0x3e319b10	0.17344308
223	0x3e9733ea	0.29531795
224	0x3e56e7ad	0.20986815
225	0x3dc655a2	0.09684302
226	0x3db1417e	0.0865507
227	0x3bb82454	0.005619565
228	0xbec4af43	-0.38414964
229	0xbeaad167	-0.33362886
230	0xbe2faf2d	-0.17156668
231	0x3d9d3e15	0.07677857
232	0x3e51dd88	0.20494664
233	0x3e24f132	0.16107634
234	0xbd521f8f	-0.051299628
235	0xbe87cb2a	-0.2652219
236	0x3e5deed1	0.21673132
237	0xbe8db871	-0.2767978
238	0x3e044b1a	0.12919274
239	0x3e86d5fd	0.26335135
240	0xbe26cb96	-0.162886
241	0xbde85f53	-0.11346307
242	0xbe3241ab	-0.17407863
243	0x3b2b1cb0	0.0026109628
244	0xbd95cec9	-0.07314832
245	0xbdc4a736	-0.096022055
246	0x3e8a3bbb	0.26998696
247	0xbe0bd8ce	-0.13656923
248	0xbe89f4cf	-0.26944587
249	0xbe70c7f4	-0.23513776
250	0xbd9845e9	-0.07435209
251	0xbda13042	-0.078705326
252	0xbe352272	-0.17688921
253	0xbe8bacfd	-0.27280417
254	0xbe8f1d8c	-0.2795223
255	0x3e0c54ef	0.13704275

fc1.bias f4 [512]
0	0x3e3f917d	0.18707843
1	0xbe4ec70f	-0.20193122
2	0x3d9eddcd	0.07757149
3	0x3db6cc6e	0.089257106
4	0x3eb0a42f	0.34500262
5	0xbdc3e507	-0.09565168
6	0x3e471832	0.19442824
7	0x3dcce0c9	0.10003812
8	0xbc4f209f	-0.012642055
9	0x3dacb702	0.084333435
10	0x3e260d82	0.1621609
11	0xbe1c27f0	-0.1524961
12	0x3d50cd23	0.050976884
13	0xbdded096	-0.10879628
14	0x3e418f13	0.18902235
15	0xbe048e39	-0.12944879
16	0xbe48936e	-0.1958749
17	0xbe32d2b2	-0.17463186
18	0xbc831e04	-0.016005524
19	0x3e6b7a48	0.22995865
20	0x3c2e18dd	0.010626045
21	0xbd06f7ff	-0.03295135
22	0x3c906e9e	0.017630871
23	0xbe22e7be	-0.15908715
24	0xbe1c7e9e	-0.15282676
25	0x3dac6edd	0.08419583
26	0xbde2fe1a	-0.11083622
27	0xbdef028f	-0.1167041
28	0xbde7ed77	-0.1132459
29	0x3c654a72	0.0139948
30	0xbe1cd1fc	-0.15314478
31	0xbd1818f1	-0.03713316
32	0xbe55be27	-0.20873319
33	0x3e120c5d	0.14262529
34	0x3e546f66	0.2074562
35	0xbdfae624	-0.12250927
36	0xbe60a2d2	-0.21937111
37	0x3e4afc0e	0.19822714
38	0xbe0887a2	-0.1333299
39	0xbe71ba12	-0.23606136
40	0x3db91661	0.090374716
41	0x3d39de93	0.04537828
42	0x3e818446	0.2529623
43	0x3e91ea1f	0.28498933
44	0xbe1b2662	-0.1515136
45	0x3dae9bbb	0.08525797
46	0x3dd91232	0.105991736
47	0x3dddd7a0	0.10832143
48	0xbd4e8a4d	-0.050424863
49	0x3e4bc0df	0.19897793
50	0x3d34ce4d	0.044142056
51	0x3e35fed0	0.17772985
52	0x3e380e18	0.17974126
53	0xbe14e401	-0.14540102
54	0xbda0f861	-0.078598745
55	0x3b91c546	0.0044485657
56	0x3e59fd8a	0.21288124
57	0xbe8d3c8c	-0.27585256
58	0xbe1f1f4e	-0.15539286
59	0xbd2eefc7	-0.04270914
60	0x3d8e91a6	0.06961374
61	0xbe70b121	-0.2350507
62	0xbdd8e11f	-0.105898134
63	0xbe5a4d3b	-0.21318524
64	0xbd6f9aae	-0.058497123
65	0xbdffb759	-0.12486143
66	0x3e60712e	0.21918175
67	0x3ea0cdee	0.31407112
68	0xbe48c431	-0.19606091
69	0xbe61384c	-0.21994132
70	0x3df98aa8	0.1218465
71	0xbd8113ef	-0.0630263
72	0xbe5edfc3	-0.21765046
73	0xbd0dad27	-0.03458896
74	0xbe6cfaeb	-0.23142593
75	0xbe09ccc8	-0.13457024
76	0xbdc78c3d	-0.09743545
77	0xbe6c0fde	-0.23052928
78	0x3e8eed15	0.27915254
79	0x3e5e5806	0.21713266
80	0x3e7b2817	0.24527012
81	0x3d5b0579	0.053472016
82	0x3e6e3062	0.23260644
83	0x3b52d51a	0.0032170475
84	0x3e26c0a2	0.16284421
85	0xbdb6ef06	-0.08932309
86	0x3ca8d9fa	0.020611752
87	0x3de1f0ca	0.11032255
88	0x3e51e840	0.20498753
89	0x3daf7218	0.085666835
90	0x3e217f2c	0.15771168
91	0xbe0be0f7	-0.13660036
92	0xbd8c9783	-0.06864836
93	0x3e78f977	0.24313913
94	0xbe5a0838	-0.21292198
95	0x3e072dc9	0.1320106
96	0x3d6dc3f5	0.058048207
97	0x3e72c0b9	0.2370633
98	0x3cc09440	0.023508191
99	0xbdeb51eb	-0.11490234
100	0x3e36533c	0.17805189
101	0xbe6feea9	-0.23430885
102	0xbe54ab25	-0.20768411
103	0xbe5bbde9	-0.21459164
104	0xbd7356a9	-0.059408817
105	0xbc703086	-0.014660006
106	0xbd9439c9	-0.07237584
107	0xbc92b03b	-0.017906299
108	0x3e174de4	0.14775807
109	0x3e86e691	0.26347783
110	0xbe41dd52	-0.18932083
111	0x3e359f64	0.17736584
112	0x3e833033	0.2562271
113	0xbdc98d07	-0.09841352
114	0xbe43b704	-0.19112784
115	0x3e976000	0.2956543
116	0x3e48a6c7	0.1959487
117	0x3c1e5d74	0.009665836
118	0x3dd90e65	0.10598449
119	0xbe5a7cee	-0.2133672
120	0xbe98b04f	-0.29822013
121	0x3dd2f917	0.10301416
122	0x3c8497e5	0.01618571
123	0x3e02335e	0.12714908
124	0xbe2923ea	-0.16517606
125	0xbe49d9ed	-0.19712038
126	0x3e6e0e07	0.23247539
127	0x3e12b188	0.14325535
128	0xbce0ae4d	-0.027426863
129	0x3e828d1c	0.25498283
130	0xbcfc2a9e	-0.03078204
131	0x3c498939	0.012300783
132	0x3e20f4ba	0.15718356
133	0x3e214474	0.15748769
134	0x3e699a06	0.22812662
135	0xbd7f3b37	-0.06231233
136	0x3e9cf94a	0.30658942
137	0xbd9e8891	-0.07740892
138	0x3e6bbfee	0.23022434
139	0xbe045413	-0.12922697
140	0xbe0077a6	-0.12545642
141	0xbe2afcbb	-0.16697972
142	0xbdce6a89	-0.10078914
143	0x3e86fc5b	0.26364407
144	0xbc4821a1	-0.012215049
145	0xbe586f95	-0.21136315
146	0x3d51ab76	0.05118891
147	0xbdbe024f	-0.09277784
148	0xbe8da182	-0.27662283
149	0xbe2a63ec	-0.1663968
150	0xbe8936f3	-0.26799735
151	0x3e8c7d1f	0.2743921
152	0xbdc46bbc	-0.09590861
153	0xbdd8e473	-0.10590448
154	0xbe72b1ff	-0.23700713
155	0x3d4122e4	0.047152415
156	0xbd45e6cf	-0.04831582
157	0x3e25dcb4	0.16197473
158	0x3d2f8ccd	0.042858887
159	0x3e0976dc	0.13424248
160	0x3e8b955b	0.27262387
161	0x3e46bf6c	0.19408959
162	0xbda91d88	-0.08257586
163	0xbe68dc20	-0.22740221
164	0xbe822107	-0.25415823
165	0x39d6f66b	0.00041000856
166	0x3e06c514	0.13161117
167	0x3e320016	0.17382845
168	0xbe243d65	-0.16039045
169	0x3e3a1ad4	0.18174297
170	0x3e924c8a	0.2857402
171	0x3e07328c	0.13202876
172	0xbe1f4d5c	-0.15556854
173	0x3e396359	0.18104304
174	0xbddb5de8	-0.107112706
175	0xbd418330	-0.04724425
176	0xbc4e7948	-0.012602158
177	0x3e32ada6	0.17449054
178	0xbdee18cf	-0.116258256
179	0x3d058193	0.032594275
180	0xbe72caab	-0.23710124
181	0xbe84d1c2	-0.25941283
182	0xbc17e1d6	-0.009270152
183	0xbdd9aa03	-0.1062813
184	0xbe293638	-0.16524589
185	0x3d03daba	0.032191016
186	0xbe840fdc	-0.2579335
187	0x3cec7655	0.028865019
188	0x3e809948	0.25116944
189	0x3a94b478	0.0011345288
190	0x3e91c795	0.28472582
191	0x3e5e0972	0.2168329
192	0x3e99a830	0.3001113
193	0xbda69ee3	-0.08135774
194	0x3d7af792	0.061271258
195	0x3e925186	0.28577822
196	0x3e5c5f63	0.21520762
197	0x3de3e62b	0.111278854
198	0x3eb2aa10	0.34895372
199	0x3cc56f3b	0.02410089
200	0xbe1d3448	-0.15351975
201	0xbe11e8bd	-0.14248939
202	0x3e6e9fb6	0.23303112
203	0xbe70ead9	-0.23527087
204	0xbe4d2f39	-0.20037545
205	0xbe202712	-0.15639904
206	0x3d6e80a6	0.058228157
207	0xbe67d308	-0.22639096
208	0x3e4a7ce3	0.19774203
209	0xbe502699	-0.20327224
210	0x3d9ffbf1	0.07811726
211	0x3e07eceb	0.13273971
212	0xbe812e50	-0.25230646
213	0x3e51ca38	0.20487297
214	0xbd9dd184	-0.077059776
215	0xbe5ad532	-0.2137039
216	0x3e5e08aa	0.21682993
217	0x3d9afe4e	0.07568036
218	0xbe267063	-0.1625381
219	0x3e0f95a0	0.14021921
220	0xbd6756ff	-0.05647945
221	0xbd45d8a2	-0.0483023
222	0x3e6f6f3e	0.2338228
223	0xbe1a359b	-0.15059511
224	0x3dfed25f	0.12442469
225	0xbe39d6d8	-0.18148363
226	0xbdab705f	-0.083710425
227	0xbe8e8c8c	-0.27841604
228	0x3e83c2eb	0.25734648
229	0x3e7600ec	0.24023789
230	0x3defdd93	0.11712184
231	0x3e700602	0.23439792
232	0x3c9acf79	0.018897759
233	0xbdab6103	-0.08368113
234	0x3d91d261	0.07120205
235	0xbe3c3fef	-0.18383764
236	0x3e4c419a	0.199469
237	0xbe807bc2	-0.2509442
238	0xbe5740a8	-0.21020758
239	0xbe31842d	-0.17335577
240	0xbdfb6a34	-0.12276116
241	0xbe472753	-0.19448595
242	0xbe80115a	-0.25013238
243	0xbe0a5b4c	-0.1351139
244	0x3e9954bd	0.29947463
245	0x3db3e3fa	0.087837175
246	0x3e2ef950	0.17087293
247	0x3dc3e46c	0.095650524
248	0xbe035ac1	-0.12827589
249	0x3e91c13d	0.28467742
250	0x3c460a02	0.012087347
251	0x3cad6ab8	0.021169052
252	0x3e8d39f6	0.27583283
253	0x3e720b90	0.23637223
254	0x3e89e4fb	0.2693251
255	0xbe6521cd	-0.22376175

fc2.weight f4 [2, 512]
0	0xbb8a05e6	-0.004212129
1	0x3dd4821e	0.103763804
2	0xbd9c13b1	-0.07620943
3	0x3d8f76dd	0.07005093
4	0x3e12eab5	0.14347346
5	0x3e8b9ae5	0.27266613
6	0xbd484ff2	-0.048904367
7	0x3ddb9b96	0.10723035
8	0x3e13ccb4	0.14433557
9	0xbc4d9fb5	-0.012550284
10	0x3cdbc44f	0.026827006
11	0xbcb7ef64	-0.022453018
12	0x3e384438	0.17994773
13	0xbb84db16	-0.0040544374
14	0xbc4546b5	-0.012040784
15	0x3d44e8b1	0.048073474
16	0x3db1112f	0.08645856
17	0x3e0099cc	0.12558669
18	0x3d10e1bb	0.035371523
19	0x3d4180e3	0.047242057
20	0xbc53c4bd	-0.012925324
21	0x3d007f3d	0.031371344
22	0xbdae564f	-0.08512556
23	0x3e1dd0b3	0.15411644
24	0x3e0f9e77	0.14025293
25	0xbcfc6993	-0.03081206
26	0x3e2d8cae	0.16948196
27	0x3db80edd	0.0898721
28	0xbdc8c9a7	-0.09804087
29	0x3d3c22dc	0.045931682
30	0x3dfd0eb0	0.12356317
31	0xbcbe958e	-0.023264673
32	0xbd87e907	-0.06636243
33	0xbd2dd579	-0.04243991
34	0xbbed774c	-0.0072468873
35	0x3edde73e	0.43340486
36	0xbb655593	-0.0034993633
37	0x3e12ba71	0.14328934
38	0xbd7b71b5	-0.061387736
39	0x3cdd5fb6	0.027023178
40	0x3d8965ea	0.06708892
41	0xbe0f761f	-0.14009903
42	0x3e22eb26	0.15910015
43	0x3e38e30e	0.18055364
44	0x3db0bdf1	0.086299784
45	0x3da448f3	0.080217265
46	0xbd978e37	-0.07400172
47	0xbde8c07f	-0.11364841
48	0xbe03630f	-0.12830757
49	0xbd24c1e6	-0.04022398
50	0x3cbb14e5	0.022837112
51	0x3d55099a	0.05201111
52	0xbd55ae23	-0.052168023
53	0xbd106667	-0.03525391
54	0xbdb2ebab	-0.08736356
55	0x3dc28e80	0.09499836
56	0x3d022a9b	0.031778913
57	0x3c001ee8	0.007819869
58	0xbd41e1f8	-0.04733464
59	0x3cd2a3e7	0.02571292
60	0x3e1840bb	0.14868443
61	0xbc72f0e4	-0.014827941
62	0xbcfc62ff	-0.030808924
63	0x3ef12f5b	0.47106442
64	0xbc3d4d4c	-0.011554074
65	0x3bf27c3e	0.0074000647
66	0xbda6ad78	-0.08138555
67	0x3df71284	0.120640785
68	0x3d32f2cb	0.043688577
69	0x3db6dd15	0.08928887
70	0xbca6caf7	-0.020360453
71	0xbcac4a64	-0.021031566
72	0x3e0c1fa3	0.13683943
73	0x3e1e17bb	0.1543874
74	0xbdee5c29	-0.11638672
75	0xbdbcab18	-0.09212321
76	0xbcae8948	-0.021305695
77	0x3e9a872c	0.30181253
78	0xbdae9a79	-0.08525557
79	0x3d4c1288	0.04982236
80	0xbdd165d9	-0.10224504
81	0x3d1cf5ca	0.03832034
82	0x3c80172e	0.015636053
83	0x3e1f7512	0.15572003
84	0x3d0fc5aa	0.035100617
85	0x3e13d9fc	0.14438623
86	0x3db4867b	0.088147126
87	0x3d63d405	0.05562212
88	0x3dee49a9	0.11635143
89	0x3dfc6c37	0.12325328
90	0xbd8f9f7d	-0.07012842
91	0x3e68b5e3	0.22725634
92	0xbda79d08	-0.08184248
93	0xbd1078cc	-0.03527145
94	0x3cd45949	0.02592148
95	0xbdac808b	-0.08422955
96	0x3dafcad8	0.08583611
97	0x3d72f1c9	0.059312616
98	0x3e28b937	0.16476904
99	0x3df7f106	0.121065184
100	0xbc9cfe72	-0.019164298
101	0x3ce6bece	0.028167155
102	0x3bf8866b	0.0075843832
103	0x3e9b9816	0.3038947
104	0x3dfbdae5	0.1229761
105	0x3d071d55	0.032986958
106	0xbc27d95b	-0.010244693
107	0xbd59d4f5	-0.053181607
108	0x3e3a25f1	0.18178536
109	0xbdbdc454	-0.09265962
110	0xbe01b13d	-0.12665267
111	0x3c23263c	0.009957846
112	0x3bf6835a	0.0075229825
113	0xbc21b995	-0.009870906
114	0x3c101b16	0.00879552
115	0xbddd73a2	-0.10813071
116	0xbdc0aabe	-0.094075665
117	0xbd13dd2e	-0.036099605
118	0xbda41f89	-0.08013827
119	0xbd820edf	-0.06350493
120	0x3dc1397f	0.09434795
121	0x3ce37e12	0.027770076
122	0x3dd3c79d	0.103408076
123	0xbba3005c	-0.004974408
124	0xbc7a91b3	-0.015293526
125	0xbe72adc5	-0.236991
126	0x3df48a8d	0.11940489
127	0xbdd742db	-0.105107985
128	0x3ddc8a88	0.1076861
129	0x3dadcd79	0.084864564
130	0xbd457a6e	-0.04821246
131	0x3c438b45	0.01193506
132	0xbdfb221d	-0.12262366
133	0x3e4a218e	0.19739363
134	0xbdcb4750	-0.09925711
135	0xbe3ac8d0	-0.18240666
136	0x3d1141dc	0.0354632
137	0xbd6ae2bf	-0.05734515
138	0xbdcacb66	-0.099020764
139	0x3d9fa7fc	0.07795712
140	0x3bc577ae	0.00602623
141	0xbcf98965	-0.030461023
142	0xbda8d6fc	-0.0824413
143	0x3e40fd6a	0.1884667
144	0x3dd58064	0.10424879
145	0xbd06efe5	-0.032943625
146	0x3c171fb1	0.009223864
147	0xbe1e3e52	-0.15453461
148	0xbceb33b0	-0.02871117
149	0xbcd6a857	-0.026203318
150	0xbd0ab740	-0.033866167
151	0xbcf08da8	-0.029364422
152	0x3e03890c	0.12845248
153	0x3d01e079	0.031708214
154	0xbd716153	-0.058930706
155	0x3e2ff562	0.1718345
156	0xbd8f2660	-0.06989741
157	0xbd10ee91	-0.035383765
158	0x3c8c093e	0.01709425
159	0x3d167418	0.03673181
160	0xbe4e89ef	-0.20169805
161	0x3e2511ed	0.1612012
162	0x3e0b7325	0.13618143
163	0xbc0cdb05	-0.00859714
164	0xbdb230a1	-0.087006815
165	0x3d348ebd	0.04408144
166	0xbd26bd1d	-0.040707696
167	0xbd138c22	-0.036022313
168	0xbdab6ea6	-0.08370714
169	0x3ceb76d3	0.028743183
170	0x3decc6f8	0.11561388
171	0x3d9f01c1	0.077640064
172	0xbd2a3e96	-0.041563593
173	0xbca0144c	-0.019540928
174	0xbd34f536	-0.044179164
175	0xbe224ba6	-0.1584917
176	0x3c881699	0.016612338
177	0x3e55f31b	0.20893519
178	0x3d654e97	0.055983152
179	0xbe00fe46	-0.12596998
180	0xbd2215ed	-0.03957169
181	0x3db917f9	0.090377755
182	0xbd5ae340	-0.05343938
183	0xbdb463b9	-0.08808083
184	0xbe418475	-0.18898185
185	0xbda32274	-0.07965556
186	0xbc4b45e8	-0.012406804
187	0xbdf0924e	-0.117466554
188	0x3e233ada	0.15940419
189	0x3d361845	0.04445674
190	0xbc268092	-0.0101624895
191	0x3dc53f2f	0.09631192
192	0x3de12df6	0.109950945
193	0x3dc7dd12	0.09758963
194	0xbdd06ab3	-0.10176601
195	0xbd1ed4fb	-0.038777333
196	0xbcf4bc3e	-0.029874917
197	0x39f165b2	0.0004604287
198	0x3d934a4c	0.071919054
199	0x3c29d6e2	0.010366173
200	0x3dc38956	0.09547679
201	0xbc55617c	-0.01302373
202	0xbd6f803c	-0.058471903
203	0xbb57c8e6	-0.0032926141
204	0xbe1b5f97	-0.15173183
205	0x3f1f4706	0.6221775
206	0xbd5dc582	-0.054143436
207	0x3b8e2258	0.00433759
208	0x3db7bc0e	0.089714155
209	0xbd07a1c7	-0.033113267
210	0x3c6a1363	0.014286849
211	0xbc8bd49b	-0.017069152
212	0xbd0ffbc3	-0.035152208
213	0xbd2653de	-0.040607326
214	0xbda8c121	-0.082399614
215	0x3dcb3142	0.099215046
216	0xbc297e1c	-0.010345008
217	0x3e447041	0.19183446
218	0x3de31b1f	0.11089157
219	0x3e169807	0.14706431
220	0x3c86ff6f	0.016479222
221	0x3dfccf43	0.123442195
222	0x3dde6a73	0.10860147
223	0xbcdb21b1	-0.026749464
224	0x3d52be74	0.05145116
225	0x3e22415a	0.15845242
226	0xbcfeaf3c	-0.031089418
227	0x3e09b64e	0.1344845
228	0xbdf3bc0f	-0.11901104
229	0xbbe18a8c	-0.006882971
230	0xbc02b509	-0.007977732
231	0xbd27b7ee	-0.040946893
232	0xbe5642c0	-0.209239
233	0xbd4053de	-0.046954982
234	0xbdbff4f1	-0.09372891
235	0xbd1642fe	-0.036684982
236	0x3d15d4bb	0.03657983
237	0xbd153687	-0.036428954
238	0xbdf3df0a	-0.11907776
239	0x3afa3b74	0.0019091205
240	0xbb939a2f	-0.004504464
241	0x3e82e297	0.255635
242	0x3cf8b50e	0.030359771
243	0x3db459f0	0.08806217
244	0x3cafa2ff	0.021440027
245	0x3d2e410c	0.042542502
246	0x3de0af3b	0.109709226
247	0xbe1ecd54	-0.15508014
248	0xbdcebdf1	-0.10094822
249	0xbce9ccdc	-0.028540067
250	0xbd62eec4	-0.055403486
251	0x3e2fd108	0.17169583
252	0x3dc7b6af	0.09751641
253	0xbc5cd2b2	-0.013477968
254	0xbda66b84	-0.08125976
255	0xbd2fb5eb	-0.0428981

fc2.bias f4 [2]
0	0xbd106b4e	-0.035258584
1	0xbadaf42a	-0.0016704847
